DLnet_gamerating.onnx (onnx, 2919 bytes, 5 tensors)

linear1.weight f4 [10, 32]
0	0x3d21accd	0.039471436
1	0xbf2b90ff	-0.6701812
2	0xbe674062	-0.22583154
3	0xbf82194b	-1.0163969
4	0xbf88e65c	-1.06953
5	0xbe95c636	-0.29252785
6	0xbf162279	-0.5864635
7	0xbf238eda	-0.6388985
8	0xbf49b437	-0.7879061
9	0xbf57067d	-0.83994275
10	0xbf67d844	-0.9056437
11	0xbf506f0e	-0.81419456
12	0xbe06b2fc	-0.13154215
13	0xbf2a0b0f	-0.66423124
14	0xbed6eaf1	-0.4197612
15	0x3fb4ae9f	1.411579
16	0xbef53e86	-0.47899264
17	0x3d87e024	0.06634548
18	0xbf3ea165	-0.7446502
19	0xbef83f34	-0.4848572
20	0x3e9cc9f9	0.30622843
21	0xbe6f343a	-0.23359767
22	0xbe3b0de8	-0.18267024
23	0xbe9ae1cd	-0.30250397
24	0xbef064ad	-0.4695181
25	0xbed3e57f	-0.4138603
26	0xbf32058b	-0.6953971
27	0xbdc17cc8	-0.09447628
28	0xbf0f2bfe	-0.559265
29	0xbe5165b6	-0.20448956
30	0xbe34cd86	-0.17656526
31	0xbec4e810	-0.384583
32	0xbdda3841	-0.10655261
33	0xbf12c33c	-0.57329154
34	0x3df63b64	0.120230466
35	0x3d928130	0.07153547
36	0x3e1822b2	0.14856985
37	0xbc4486bc	-0.011995014
38	0xbe920237	-0.28517315
39	0xbf0308b5	-0.5118516
40	0x3efd18ae	0.49432892
41	0xbe68990c	-0.22714633
42	0xbedd9d0d	-0.43283883
43	0xbeaef6ae	-0.34172577
44	0x3e734b4d	0.23759194
45	0x3ea13fd9	0.31494024
46	0x3ed4f518	0.41593242
47	0x3f86926c	1.0513434
48	0xbc94b169	-0.018151002
49	0xbed42674	-0.41435587
50	0xbd8c29f2	-0.06843938
51	0x3ed37bf8	0.41305518
52	0x3f06c779	0.5264812
53	0xbe9ee42a	-0.3103345
54	0xbe8187dc	-0.25298965
55	0xbdae29bb	-0.08504053
56	0xbdae53d5	-0.085120834
57	0x3eb9177d	0.36150733
58	0x3e56ec66	0.20988616
59	0x3d107e83	0.0352769
60	0xbebc2d3f	-0.3675327
61	0xbe75fbbc	-0.2402181
62	0x3e4464be	0.19179055
63	0x3f09e79a	0.5386902
64	0xbdb418fe	-0.087938294
65	0x3e342bd2	0.17594841
66	0x3d914445	0.070930995
67	0x3ef29bbb	0.47384438
68	0x3e669c06	0.22520456
69	0x3df0bbbf	0.1175456
70	0x3d4c86c1	0.0499332
71	0x3e0af146	0.13568601
72	0x3f00a92c	0.50258136
73	0x3e7e5ea9	0.24840797
74	0x3e0efe1c	0.13964123
75	0xbd8bfb2a	-0.06835015
76	0xbe05034c	-0.12989539
77	0xbe324254	-0.17408115
78	0xbc0fefa8	-0.008785166
79	0x3e126d5c	0.1429953
80	0x3e090959	0.13382472
81	0x3e1b7c01	0.15184022
82	0xbe2f5410	-0.17121911
83	0xbe1b3456	-0.15156683
84	0x3ed18454	0.4092127
85	0x3c7e1410	0.015507713
86	0xbe1c2456	-0.15248236
87	0x3dbb0b66	0.091330335
88	0xbd8d5794	-0.0690147
89	0x3e7401c8	0.23828804
90	0xbe587da5	-0.2114168
91	0x3cc72bb4	0.024312831
92	0x3d4ac713	0.04950626
93	0x3d0dfe46	0.034666322
94	0xbd918381	-0.071051605
95	0x3e72c8b1	0.2370937
96	0x3e01e745	0.12685879
97	0xbe1005d8	-0.14064729
98	0x3d5f71fe	0.05455207
99	0x3ddec601	0.1087761
100	0x3da4e0bc	0.08050677
101	0x3d7703d7	0.060306396
102	0x3d85f3bf	0.065406315
103	0xbd3f8876	-0.046761
104	0xbd0672da	-0.032824375
105	0xbe109ff7	-0.14123522
106	0x3c25ae3c	0.0101123415
107	0x3c8025c9	0.015643017
108	0x3d5b8515	0.053593714
109	0x3de0eecf	0.10983049
110	0x3dc10f08	0.09426695
111	0x3e5b032b	0.21387927
112	0xbc327781	-0.01089275
113	0xbd2d86e2	-0.042364962
114	0x3c8f7d22	0.017515723
115	0x3dd760cd	0.1051651
116	0x3eaf2110	0.34204912
117	0xbd48dc8d	-0.04903846
118	0xbd91a20a	-0.071109846
119	0x3d3ab5e6	0.045583628
120	0xbe03eee8	-0.12884104
121	0x3d3cbb15	0.046076853
122	0xbd9f57e3	-0.07780435
123	0x3c135521	0.008992464
124	0x3dec2aae	0.11531578
125	0xbc228853	-0.009920198
126	0x3d8e586f	0.06950461
127	0xbbfe14a9	-0.0077539277
128	0x3f52bb50	0.82317066
129	0xbef2ec88	-0.47446084
130	0x3e924a4b	0.28572306
131	0x3f804d1f	1.0023535
132	0x3ea0e21e	0.31422514
133	0x3f2a80ea	0.6660296
134	0x3e808e08	0.2510836
135	0x3dbbf986	0.09178452
136	0x3f0f0554	0.55867505
137	0xbcd60a5a	-0.026127983
138	0xbe4f625f	-0.2025237
139	0x3d16f7d3	0.036857437
140	0x3f07b6a2	0.5301305
141	0x3e06c53f	0.13161181
142	0x3d90797a	0.0705442
143	0x3f4204dd	0.7578867
144	0x3f240993	0.6407711
145	0x3f58113a	0.84401286
146	0x3d96937a	0.07352348
147	0x3e8965f1	0.26835588
148	0x3fd75e44	1.6825643
149	0x3ec0d171	0.3765979
150	0xbe421668	-0.1895386
151	0x3ec60bb4	0.38680804
152	0xbed66b95	-0.41878954
153	0x3f3d7a1c	0.7401445
154	0xbdddb23c	-0.10825011
155	0x3e478105	0.19482811
156	0xbc123532	-0.008923816
157	0x3dd59201	0.10428239
158	0x3d078b4b	0.033091825
159	0xbcf00178	-0.029297575
160	0xbdb0ef77	-0.08639424
161	0x3d3f1342	0.046649225
162	0xbd46ba74	-0.04851766
163	0x3d2bca52	0.041940995
164	0xbc0df8a3	-0.008665237
165	0x3cc589a3	0.024113482
166	0x3db5e608	0.088817656
167	0xbd8752ad	-0.06607566
168	0x3cdf9e32	0.027297113
169	0xbc19d82a	-0.009389916
170	0x3e10a991	0.14127184
171	0x3cb2bcf8	0.021818623
172	0x3d2bfad6	0.041987263
173	0xbda7ab33	-0.081869505
174	0x3db56d41	0.08858729
175	0x3e795495	0.24348672
176	0x3d158769	0.03650609
177	0x3ddaeec7	0.106900744
178	0xbd7cb782	-0.061698444
179	0x3c93173e	0.017955419
180	0x3ece59c3	0.40302858
181	0xbb94a9d9	-0.004536849
182	0xbd509bd5	-0.050929863
183	0xbd60bc54	-0.054867104
184	0x3b56d6c3	0.0032781817
185	0x3e2dcd38	0.16972816
186	0xbd3fdd06	-0.046841644
187	0x3e05f0f4	0.13080198
188	0x3d00cb08	0.031443626
189	0x3da4c360	0.08045077
190	0xbbe21b67	-0.0069002393
191	0xbd6d2475	-0.057896096
192	0xbcad82c9	-0.021180527
193	0xbe98e4c5	-0.29862037
194	0x3bd86804	0.0066041965
195	0xbfe1c717	-1.7638882
196	0xbfd54ae6	-1.6663482
197	0xbe56ad0e	-0.20964453
198	0x3deb9e6d	0.11504827
199	0x3e90464e	0.28178638
200	0xbe121647	-0.1426631
201	0xbf3ce7d8	-0.73791265
202	0xbe5a716a	-0.21332327
203	0xbf4e937a	-0.8069378
204	0x3d2d2426	0.042270802
205	0xbe5467af	-0.20742677
206	0x3e3209c4	0.17386538
207	0x3e95996a	0.29218608
208	0x3e145054	0.14483768
209	0xbec4fc3c	-0.3847369
210	0xbec09c0f	-0.37619063
211	0x3d38c6a4	0.045111313
212	0x3e63a67b	0.22231476
213	0x3e3ecc2a	0.1863257
214	0xbf0635fc	-0.52426124
215	0x3ec53470	0.3851657
216	0x3f7ba1d8	0.9829383
217	0x3f4e52f2	0.80595315
218	0xbc80b114	-0.015709437
219	0xbefa70ad	-0.4891409
220	0x3f11fdab	0.5702769
221	0x3e9b429c	0.30324256
222	0x3e701c17	0.23448215
223	0x3eae27cf	0.34014747
224	0x3c5f58d4	0.013632018
225	0xbea849be	-0.3286876
226	0xbe8e5412	-0.27798516
227	0x3f1a3492	0.60236466
228	0x3f2df458	0.67950964
229	0xbe504682	-0.20339397
230	0xbd68d837	-0.056846824
231	0xbdee6dca	-0.11642034
232	0xbe294c04	-0.16532904
233	0x3e661fe0	0.22473097
234	0x3dcaebaf	0.09908234
235	0x3e321be4	0.17393452
236	0xbea5f035	-0.32409826
237	0x3dda03e3	0.106452726
238	0x38be92d0	9.087252e-05
239	0xbdc286bb	-0.09498354
240	0xbd2cd7d6	-0.042198025
241	0xbe200fcc	-0.15631026
242	0xbea40b8d	-0.32040063
243	0xbeb179ea	-0.34663326
244	0xbe723657	-0.23653542
245	0xbd51f935	-0.051263053
246	0x3df457ba	0.11930795
247	0xbbd8942e	-0.0066094613
248	0xbe030ee3	-0.12798648
249	0xbd5743b5	-0.052554805
250	0x3f06ac1e	0.5260638
251	0xbf6e605b	-0.93115777
252	0x3e74c5f9	0.23903646
253	0xbbf2d54e	-0.007410682
254	0x3d62328e	0.055223994
255	0xbde6bf02	-0.112669006

linear1.bias f4 [10]
0	0xc00c3d16	-2.1912284
1	0xc0167ef5	-2.3514988
2	0xc02dcb08	-2.715517
3	0xbfc97ed4	-1.574183
4	0xc0a89305	-5.2679467
5	0xbfecd8f8	-1.8503714
6	0xc050023c	-3.2501364
7	0x3e78b00d	0.24285908
8	0xbe8b773a	-0.272394
9	0xbf92b08e	-1.146013

linear2.weight f4 [6, 10]
0	0xbdb7b852	-0.08970703
1	0xbe8c62c2	-0.27419096
2	0xbe22d9f8	-0.15903461
3	0xbddebe20	-0.10876107
4	0xbdc26fcf	-0.09493982
5	0xbef59d46	-0.47971553
6	0xbe0737e5	-0.13204916
7	0xbcf44ead	-0.029822672
8	0x3d82a188	0.06378466
9	0xbe98c7c7	-0.29839918
10	0xbe5ed4fc	-0.21760935
11	0xbee642e0	-0.44972897
12	0xbd2a91a0	-0.041642785
13	0xbee71a71	-0.4513736
14	0xbb1314ed	-0.0022442893
15	0xbe87d97b	-0.26533112
16	0xbe900e47	-0.28135893
17	0xbe7d5d6f	-0.24742673
18	0xbdc0117a	-0.093783334
19	0xbe33b6e9	-0.17550243
20	0xbecdc14e	-0.40186542
21	0x3d7d4bf2	0.061840005
22	0xbef258c1	-0.4733334
23	0xbe1ba290	-0.15198731
24	0xbdf5b2f5	-0.11997024
25	0xbe04dbd4	-0.12974483
26	0xbd50b4bd	-0.050953615
27	0xbecf804f	-0.4052758
28	0xbea42ad1	-0.32063916
29	0xbecf77c4	-0.4052106
30	0xbca80a0f	-0.020512609
31	0xbe50d708	-0.20394528
32	0xbd1d2903	-0.03836919
33	0xbd82e8af	-0.06392037
34	0xbe6487d8	-0.22317445
35	0xbeaefbe6	-0.34176558
36	0xbcc5509f	-0.024086295
37	0xbe8b22b9	-0.2717493
38	0xbe68cc20	-0.22734118
39	0xbc514b4b	-0.012774299
40	0xbedeb12f	-0.43494555
41	0x3d45eb30	0.048319995
42	0xba7e94f1	-0.0009711525
43	0xbbf91b7e	-0.0076021543
44	0x3dec3bbd	0.11534832
45	0x3a895c19	0.0010479718
46	0x3db1d4d9	0.086831756
47	0x3e1c523a	0.15265742
48	0xb93142e2	-0.00016904951
49	0x3e36f72d	0.17867728
50	0xbd299fc0	-0.041412115
51	0xbe6c695e	-0.2308707
52	0xbda13764	-0.07871893
53	0xbdb78ee6	-0.089628026
54	0xbe9941dc	-0.2993306
55	0xbed20ed1	-0.4102693
56	0xbda53a8b	-0.08067807
57	0xbf05c8cb	-0.5225951
58	0xbe9ab11b	-0.30213246
59	0xbc09f35b	-0.008419837

linear2.bias f4 [6]
0	0xbb0d368b	-0.0021547403
1	0xbe6911f4	-0.22760755
2	0xbf18e59b	-0.5972535
3	0xbdf4a389	-0.11945254
4	0x3ec0d077	0.37659046
5	0xbf77517a	-0.966087

linear3.weight f4 [1, 6]
0	0xbc8c8e3b	-0.017157665
1	0xbd9d39db	-0.07677051
2	0x3d151720	0.036399007
3	0xbeab615c	-0.33472717
4	0x3e5d2133	0.21594696
5	0x3cc7d25b	0.024392297
