DLnet_gamerating.onnx (onnx, 2919 bytes, 5 tensors)

linear1.weight f4 [10, 32]
-0.014854913 -0.0073028523 -0.004398535 0.1696213 -0.08107503 0.0339538 -0.03221715 -0.023441354
0.14420344 -0.11913172 -0.021280156 -0.042970162 -0.035284996 0.01422814 0.044869553 0.0016981625
0.047210544 0.07899818 -0.060318667 0.050278965 0.1596201 -0.025146715 -0.0455506 -0.0017696661
-0.1494085 0.005350562 -0.16544628 0.065823935 -0.17071773 -0.06926265 -0.0062168734 0.0052249096
-0.23303314 -0.17098059 0.03492736 0.014226176 0.037038215 0.15053155 0.029846672 0.09646957
0.11877998 0.20954798 -0.16275536 -0.1633052 -0.0033403498 -0.17557882 0.16622812 0.25588292
-0.06464231 0.060125284 -0.13918762 0.1732834 0.4817369 0.02069112 -0.04044076 -0.020065986
-0.011777572 0.13143474 -0.07711908 -0.017909296 0.27843094 0.1000372 0.027755346 0.033087965
-0.16823265 -0.0399464 0.0010519444 0.026342785 0.012880176 0.09498179 0.034321763 -0.0423405
0.08295198 -0.05665601 -0.05028893 -0.04431216 -0.00051705283 -0.08831232 -0.073360175 -0.0010057217
0.08314246 0.024338512 -0.0023873698 -0.11659327 0.1779806 -0.011258504 -0.096302964 0.03999838
0.053088345 -0.15064502 0.0060391673 0.119751506 0.0126527725 -0.04529665 -0.022911446 -0.14847994
-0.02773072 0.17327149 0.24741855 0.30781725 0.04431078 0.2559784 -0.27218407 -0.3584292
0.091950096 0.079724595 -0.27651125 0.18940431 -0.05065086 0.08589943 -0.42333788 0.010978226
-0.011437555 0.15897803 0.2591194 0.3381325 0.22141518 0.5075427 0.36939994 0.1549066
0.21637933 -0.18539447 0.027498377 -0.043975774 -0.050528426 0.06500036 -0.10214369 -0.08243391
-0.06648495 0.009668431 -0.103765555 0.089103885 0.072198816 0.09138686 -0.093538664 0.18057944
0.31128046 -0.15126826 0.12904815 -0.012048745 -0.22243378 -0.076415636 -0.1415657 0.3389606
0.083105445 0.1440467 0.26010588 -0.0028363625 0.26061583 -0.046158466 0.040880647 -0.13963838
-0.0049740514 0.076447345 -0.09387932 -0.056100845 -0.0042602746 0.015259673 0.17382868 -0.35450402
0.014869695 0.025520224 0.045373015 0.03276532 -0.05124937 -0.038158126 -0.06076583 -0.16468392
0.03944925 -0.027043445 0.02966327 0.0024626958 -0.07028009 0.018341064 -0.014726411 0.07142439
-0.020871393 0.02592178 0.0005754211 0.005296805 0.09024174 -0.015957119 -0.016967176 0.04362744
0.010601378 -0.054364167 -0.05416237 0.02363761 -0.16072105 -0.17957084 -0.11717495 -0.002301284
-0.02053562 -0.17371957 0.04436195 0.20592804 0.37575528 -0.52596426 -0.066895835 -0.02088628
-0.07168361 0.17510544 0.17261542 0.057267644 -0.049048968 0.15281676 -0.6152213 -0.20319651
-0.073292546 0.060742173 -0.23708074 0.07822014 -0.22877988 -0.46758524 -0.21728368 0.14676799
0.16413678 0.10348479 0.1777209 0.21462269 0.17199203 -0.55939126 -0.03551952 -0.37693048
-0.0052736145 -0.11895097 0.001686993 0.5018785 0.27403885 -0.16524594 -0.13875046 0.050292876
0.055408437 -0.07381752 -0.10029105 -0.32288435 -0.158184 -0.10894733 -0.04493037 0.048692457
-0.05343391 -0.2099168 0.2909147 -0.3914213 0.0076328474 -0.05900874 -0.32365417 -0.30007285
-0.41228274 0.02759327 0.2310857 -0.09441152 -0.14889307 -0.15138729 -0.084206864 0.56193095
00000000: 0562 73bc c44c efbb 9621 90bb 35b1 2d3e
00000010: aa0a a6bd 2413 0b3d 21f6 03bd 1508 c0bc
00000020: 11aa 133e 55fb f3bd b953 aebc 7b01 30bd
00000030: 0087 10bd 251d 693c 23c9 373d e194 de3a
00000040: d85f 413d ccc9 a13d b510 77bd 51f1 4d3d
00000050: 7473 233e 7c00 cebc 4493 3abd 24f4 e7ba
00000060: 8bfe 18be c453 af3b c06a 29be b3ce 863d
00000070: a1d0 2ebe 94d9 8dbd eab6 cbbb b835 ab3b
00000080: 3da0 6ebe 8915 2fbe fe0f 0f3d e814 693c
00000090: 62b5 173d f124 1a3e 0281 f43c d791 c53d
000000a0: eb42 f33d bf93 563e 57a9 26be 7a39 27be
000000b0: c5e9 5abb efca 33be b437 2a3e 1603 833e
000000c0: 3063 84bd ee45 763d 3387 0ebe 3471 313e
000000d0: 38a6 f63e 6c80 a93c 36a5 25bd 6c61 a4bc
000000e0: b8f6 40bc d496 063e 9cf0 9dbd 84b6 92bc
000000f0: 808e 8e3e 4ee0 cc3d 2e5f e33c 3f87 073d
00000100: 2e45 2cbe d69e 23bd 66e1 893a d3cc d73c
00000110: 6007 533c d085 c23d fa94 0c3d 3b6d 2dbd
00000120: bae2 a93d 2210 68bd c4fb 4dbd ab80 35bd
00000130: d48a 07ba 17dd b4bd dc3d 96bd 6cd2 83ba
00000140: 9846 aa3d 8f61 c73c 6b75 1cbb 74c8 eebd
00000150: 8c40 363e 9775 38bc 7d3a c5bd 57d5 233d
00000160: 2a73 593d b042 1abe 35e4 c53b 4740 f53d
00000170: 934d 4f3c fb88 39bd c9b0 bbbc 200b 18be
00000180: 892b e3bc 156e 313e 4a5b 7d3e 399a 9d3e
00000190: 387f 353d 9a0f 833e b65b 8bbe 0884 b7be
000001a0: 5550 bc3d a646 a33d e292 8dbe 34f3 413e
000001b0: 4777 4fbd 0aec af3d bebf d8be 04de 333c
000001c0: 9564 3bbc 23cb 223e 4cab 843e b41f ad3e
000001d0: a9ba 623e 52ee 013f fd21 bd3e d69f 1e3e
000001e0: 8b92 5d3e 0cd8 3dbe 4744 e13c f11f 34bd
000001f0: e5f6 4ebd e91e 853d b630 d1bd 1cd3 a8bd
00000200: 4329 88bd 5768 1e3c 0983 d4bd 197c b63d
00000210: f9dc 933d 0929 bb3d 3391 bfbd d1e9 383e
00000220: 2760 9f3e 11e6 1abe 3325 043e 1968 45bc
00000230: aec5 63be cd7f 9cbd 99f6 10be 3e8c ad3e
00000240: 3033 aa3d fa80 133e 992c 853e 44e2 39bb
00000250: 706f 853e a910 3dbd 7772 273d 5dfd 0ebe
00000260: 5efd a2bb 6d90 9c3d cd43 c0bd 00ca 65bd
00000270: c699 8bbb b503 7a3c 2500 323e 8d81 b5be
00000280: 05a0 733c ca0f d13c 0ed9 393d ee34 063d
00000290: dcea 51bd b24b 1cbd 97e5 78bd e7a2 28be
000002a0: 8995 213d 378a ddbc 6300 f33c 2e65 213b
000002b0: 02ef 8fbd 0040 963c 0b47 71bc f346 923d
000002c0: 7cfa aabc ea59 d43c dbd7 163a d290 ad3b
000002d0: a9d0 b83d 81b8 82bc bffe 8abc b0b2 323d
000002e0: 67b1 2d3c f6ac 5ebd 5cd9 5dbd a9a3 c13c
000002f0: 0f94 24be 6be1 37be 6cf9 efbd 24d1 16bb
00000300: 513a a8bc 8be3 31be e0b4 353d cdde 523e
00000310: ff62 c03e 98a5 06bf af00 89bd b419 abbc
00000320: dbce 92bd d74e 333e 19c2 303e 7a91 6a3d
00000330: 92e7 48bd ff7b 1c3e 257f 1dbf bf12 50be
00000340: 671a 96bd c9cc 783d 4bc5 72be e131 a03d
00000350: 4645 6abe 5567 efbe 9d7f 5ebe 594a 163e
00000360: 7913 283e d5ef d33d 78fc 353e 0dc6 5b3e
00000370: ae1e 303e 4434 0fbf eb7c 11bd 08fd c0be
00000380: 49ce acbb 919c f3bd 181e dd3a 1c7b 003f
00000390: d24e 8c3e 3b36 29be 9a14 0ebe e7ff 4d3d
000003a0: f5f3 623d a42d 97bd 6565 cdbd 1951 a5be
000003b0: fdfa 21be c71f dfbd e808 38bd be71 473d
000003c0: 84dd 5abd 6ef4 56be c6f2 943e 5f68 c8be
000003d0: f71c fa3b 26b3 71bd 00b6 a5be 26a3 99be
000003e0: b916 d3be 480b e23c bba1 6c3e d45a c1bd
000003f0: 6d77 18be 4505 1bbe a674 acbd b5da 0f3f

linear1.bias f4 [10]
-0.90674907 -1.3755299 -1.0132204 -0.3353909 -1.5305961 -0.57872283 0.41334224 -0.32953125
-1.2661319 -1.4022508
00000000: b520 68bf 5d11 b0bf 35b1 81bf 5bb8 abbe
00000010: 93ea c3bf 2e27 14bf 98a1 d33e 52b8 a8be
00000020: 9c10 a2bf f47c b3bf

linear2.weight f4 [6, 10]
0.0408137 -0.20286825 0.120084986 -0.48749635 -0.14824173 -0.18012719 -0.22985844 -0.107203186
-0.0057022 -0.15491119 -0.05222095 -0.17595309 -0.15268436 -0.07972737 -0.048458263 -0.25870207
-0.2556722 -0.37376633 -0.35747993 -0.08846618 0.08236125 -0.0010839279 -0.033888258 0.11249405
0.07643078 -0.14640048 0.19925296 0.15829863 0.05339128 0.04460579 -0.11588117 0.0006544481
0.0059552277 0.0031725806 -0.060794067 -0.09458795 -0.17274548 -0.004899334 -0.013765565 -0.14450784
-0.05824025 -0.15063624 -0.047645863 -0.310436 -0.001216681 -0.3780635 0.0037538724 -0.023689907
0.041312117 0.002104555 -0.19654532 -0.06721583 0.12231517 -0.08333692 -0.11547478 0.30952695
-0.15120335 -0.12911089 -0.08834139 -0.20064266
00000000: 442c 273d b2bc 4fbe 1eef f53d 1f99 f9be
00000010: aecc 17be 4373 38be 0360 6bbe 588d dbbd
00000020: 85d9 babb 0aa1 1ebe a3e5 55bd 0c2d 34be
00000030: 4a59 1cbe 1a48 a3bd 2c7c 46bd 9974 84be
00000040: 77e7 82be 4d5e bfbe 9c07 b7be c22d b5bd
00000050: 04ad a83d 9612 8eba 6ace 0abd 4863 e63d
00000060: be87 9c3d 02ea 15be f808 4c3e 0919 223e
00000070: d1b0 5a3d 90b4 363d 1b53 edbd 458f 2b3a
00000080: 1224 c33b 12eb 4f3b 3303 79bd 54b7 c1bd
00000090: 31e4 30be 988a a0bb f788 61bc ddf9 13be
000000a0: 548d 6ebd 6340 1abe 4f28 43bd 78f1 9ebe
000000b0: 0a79 9fba 8a91 c1be 8703 763b 5611 c2bc
000000c0: e536 293d 93ec 093b 2d43 49be 74a8 89bd
000000d0: 6080 fa3d 8cac aabd 0b7e ecbd 517a 9e3e
000000e0: 0dd5 1abe a535 04be 55ec b4bd 4575 4dbe

linear2.bias f4 [6]
-0.42499003 -0.09220172 0.7934147 -0.03247272 -0.38177934 0.48464954
00000000: 4b98 d9be 41d4 bcbd 3a1d 4b3f 1d02 05bd
00000010: 9578 c3be fc23 f83e

linear3.weight f4 [1, 6]
0.061630372 -0.16300052 0.39018577 -0.11864802 -0.24356242 0.060144927
00000000: 2170 7c3d 9ce9 26be 6ec6 c73e bcfd f2bd
00000010: 6d68 79be 875a 763d
