esrb_classifier.onnx (onnx, 15963 bytes, 6 tensors)

fc1.weight f4 [64, 24]
00000000: 4a54 90be 61c2 45bc b797 583e 5662 993d
00000010: 805a 31be 7f97 eebe 53fd 693c 2d14 2c3e
00000020: 5f62 863e c29c 613e c761 9e3d 9800 2c3e
00000030: 2e78 4fbe bbb1 0a3e fde9 073e 692a 873e
00000040: e074 ac3e 3964 d33e b5db 09be bd48 7e3d
00000050: 5eba 8dbd 743f 8a3c 6a6f 1bbe 9746 24be
00000060: cfc5 413d 632c 57bc ecfd 02bf 8ae9 4e3e
00000070: 4d58 e93e 95b8 8e3e 3e25 cf3d cfb1 1f3e
00000080: 657a c13d df44 70bd 167b a43e 9c53 e03e
00000090: 5241 1fbd fc6c 1f3d a95e 883e 06d0 2cbd
000000a0: 8002 d23e 8b49 f23e fc89 a63e c3b2 c5be
000000b0: 5bd9 423e ac13 453e ec4f 9c3e 9b72 033c
000000c0: 9332 f2bd e3f7 4bbe acbf f83d a074 103f
000000d0: c333 6dbe 4c95 88be 1b4c 70bd 9462 9ebe
000000e0: 6ab1 cdbc c2d0 023d fda2 fbbb 2e09 c5bd
000000f0: 58ad 6bbe 4f42 dd3d 3b38 ba3d 4e09 46bd
00000100: eaf5 413e 5fb8 be3e 8db3 d6bc 8432 a8bc
00000110: 4b8a 0b3e a837 9c3c a5bf 4bbd 34e4 243e
00000120: 8d3a dc3d 3ecd bdbe 7e1c 083e 58a9 d23d
00000130: 558e d9bd 33d1 4f3d 8bad 173d 6c86 b3be
00000140: 7186 6abe ba31 15be d5f6 90be 34ed c23c
00000150: 6497 b4be 69e2 7fbd fc8a 6e3d 50ef 833d
00000160: 54ce 96bd d566 e8be 2e33 c3be 0b18 613d
00000170: 7cf7 733c 8fc2 bf3d a9a5 483e 5841 a4bd
00000180: 17cf 953e c0e7 f13d c0ee 01bd bb04 efbd
00000190: 01c8 833e f6e5 903d b509 123e d90d 873e
000001a0: 0322 8d3d 4cbf 85bd 8d96 2fbe 95fc 263e
000001b0: e7c8 62bd a98c 7fbe c2e1 fabe b67a b8bd
000001c0: 64ff b0bd 4e5a 113d c555 243d 4c41 13bd
000001d0: b622 99be 28f0 553e 0642 a2be 021a cb3d
000001e0: 34d2 aabd a4c8 8f3e 274b dd3e 8158 ecbd
000001f0: 0304 9bbd f201 d4bc 632b 46bf 6ac2 203e
00000200: dcb4 29be 25f3 713e 9a0f 633e b177 8e3e
00000210: d0f4 a53d d6e3 c13e 2069 84be de0c 143e
00000220: 7e41 1c3e 3f24 4b3e 621a 5f3b cd84 7b3e
00000230: 94b9 5f3e 6d35 f93d c266 c03e f9d3 e5bd
00000240: f392 19bf ba84 3fbe 55f5 56bc 174e 983e
00000250: 1203 acbe 121b 0abf 7959 9dbe 7c8d b1be
00000260: c961 813e efba 8d3d 712d 983d 02f1 743e
00000270: 0c2e 92be 33e3 a83e 46bb 613e 9150 00bc
00000280: 118a a23d ddc2 bd3e d618 69be cf7b 673e
00000290: 503a c8bd c8d0 133b cf84 7d3d f09b b1be
000002a0: e4b1 2b3e 65ea 46bd f531 afbe 4012 69be
000002b0: 152c 4d3e aefd 153e 3bda 03be ac54 b4bc
000002c0: 7cda a23d 1785 3a3e 3e7e 97be 1b80 a83e
000002d0: c237 4f3e 1bb6 2abe 6f1d 5a3e 1676 a3bd
000002e0: cda5 d3be 5a33 95be 47bc 90be 2fa5 bd3c
000002f0: f683 ffbd ff5c 1e3e fcb0 0a3e 9c42 86bd
00000300: deb7 4abe 35b0 f5be b4f2 953d 9297 bfbd
00000310: 080e 9f3e 8ef0 cdbe 131b 50be 3e6e 58be
00000320: 723a e03a 54a4 a8be d5e6 6ebe b3ee 69bd
00000330: 5745 f53e 8436 b53d f4e6 3fbd 545c 693d
00000340: 0277 8cbd f40b 3a3f f051 d3be 62c9 8b3d
00000350: 6a92 44bf aebb b0bd 27d0 a1be 08a4 25bf
00000360: 3774 9fbc 60fe b8be e3d0 b23e 7f33 8f3e
00000370: f970 b4bd 1b1e 10bf c464 ec3d 7808 50be
00000380: 055e 4e3d b959 19bd 1a6a 92be 89a1 6abc
00000390: 3737 c1be 62da ec3e 84b1 8f3e a7e1 253e
000003a0: 343d 20bd bb28 e93e 2338 383d 1121 653e
000003b0: 13a5 493e 5f71 a63c 3483 833e c75b c2bd
000003c0: 7759 7fbd 4a7a a3bb e060 a0be 7bf7 85be
000003d0: 1cc9 533d bc6c 4e3e c5b1 d7bd 7072 fb3c
000003e0: 2934 003e 11c0 d5bd d428 aebe 6a7a 60bd
000003f0: 0784 cabd fe48 9bbe 2c37 553c 091a a8bd
-0.28189307 -0.012070269 0.21151625 0.07489459 -0.1731968 -0.46599957 0.014281589 0.16804571
0.26246926 0.22032455 0.07733493 0.16797101 -0.20260689 0.13544361 0.13272853 0.26399544
0.3368292 0.412874 -0.13462718 0.062081087 -0.06920312 0.01687596 -0.1517922 -0.16042553
0.047307786 -0.013133141 -0.51168704 0.20206276 0.4557518 0.278752 0.10114525 0.15595172
0.09447173 -0.05865943 0.32125157 0.4381379 -0.038880654 0.038922295 0.2663472 -0.042190574
0.41017532 0.47321734 0.3252715 -0.38612947 0.19028227 0.19245785 0.30529726 0.00802293
-0.118260525 -0.1991878 0.121459335 0.56427956 -0.23164277 -0.26676404 -0.05866633 -0.30934584
-0.025109012 0.03193737 -0.007679342 -0.096208915 -0.23015344 0.10803663 0.09092756 -0.048348717
0.18941465 0.3725004 -0.026208663 -0.0205319 0.13626973 0.019069508 -0.049743313 0.16102678
0.10753355 -0.3707065 0.13292119 0.10286206 -0.10622851 0.050736617 0.037030738 -0.35063493
-0.22902848 -0.1456975 -0.28313318 0.023794748 -0.35271752 -0.06247178 0.058238015 0.064421296
-0.07363573 -0.45390955 -0.38124985 0.05495457 0.014890548 0.09363281 0.19594444 -0.08020276
0.2925956 0.11811781 -0.03172183 -0.11670824 0.25738528 0.070751116 0.14261515 0.26377752
0.06891253 -0.065306276 -0.17147274 0.1630729 -0.055367377 -0.24956001 -0.49000365 -0.0900778
-0.08642462 0.035486512 0.04012086 -0.035950944 -0.29909295 0.20892394 -0.31690997 0.0991707
-0.08340874 0.28082764 0.432214 -0.11540318 -0.075691245 -0.025879834 -0.7740995 0.15699163
-0.16572899 0.23627909 0.2217392 0.27825692 0.08103335 0.37869138 -0.25861454 0.14458033
0.15259358 0.19838046 0.0034042825 0.24562378 0.21848136 0.12168393 0.37578398 -0.11222071
-0.5998985 -0.18702975 -0.013120015 0.29747078 -0.33596092 -0.53947556 -0.30732325 -0.34678257
0.25269917 0.069204204 0.07430542 0.23920062 -0.28550756 0.3298584 0.22044095 -0.0078317085
0.0793649 0.3706273 -0.2276338 0.22605823 -0.09776747 0.0022554863 0.061894234 -0.34689283
0.16767079 -0.04856338 -0.34217802 -0.22760868 0.20036347 0.14647552 -0.12876217 -0.022013031
0.07951829 0.18214832 -0.29588503 0.32910237 0.20236114 -0.1667103 0.2130029 -0.079815075
-0.41337433 -0.2914074 -0.28268644 0.023150055 -0.124763414 0.15465163 0.13544077 -0.065556735
-0.19796702 -0.47985998 0.073216826 -0.093550816 0.31065392 -0.4022259 -0.20322828 -0.21135804
0.0017107262 -0.32937872 -0.23330243 -0.057112407 0.47904465 0.08848289 -0.046851113 0.056972817
-0.068586364 0.7267449 -0.4127345 0.0682552 -0.7678591 -0.08629547 -0.3160412 -0.64703417
-0.019464595 -0.36131573 0.34924993 0.27968976 -0.0881061 -0.5629594 0.11542657 -0.2031573
0.050382633 -0.03743908 -0.28596574 -0.01432074 -0.37737438 0.46260363 0.2806512 0.16199361
-0.039120868 0.45538887 0.04497541 0.22375895 0.19691877 0.020317731 0.25686038 -0.094901614
-0.06234118 -0.004988943 -0.3132391 -0.26165375 0.051705465 0.20158666 -0.10531954 0.030694216
0.12519898 -0.104370244 -0.34015524 -0.054804243 -0.098884635 -0.30329126 0.013013642 -0.08208091

fc1.bias f4 [64]
00000000: add8 a1bd 01ec 00bd caed 923e 882b c93e
00000010: 77dd 9a3e 27e2 68ba 9d70 943e 5cf0 e33e
00000020: 1e35 e83e 8997 913d 48ee d33e f3ce 41bd
00000030: 00d1 ab3e 96be c33e 79bb a43d c2c7 a23e
00000040: c094 873a 0987 a43e be40 533c a67b bdbc
00000050: 9d97 0d3c a800 2dbc 61e7 88bd b5a4 893d
00000060: 94da 213e 90dd 5abd b405 63bc f4d6 87bd
00000070: fdce 0dbd e1a3 a33e b400 02bc d143 94bc
00000080: 11d9 10bd b3d0 0c3c 16ac 703e 8e4d 53bd
00000090: 0df8 2abd c772 c9bd 05a9 1fbc d16a aabc
000000a0: 7d53 29bc 5fba 513e 8864 59bd faba 3e3e
000000b0: 9a98 bebc a850 733e fcae 06bd be66 18bd
000000c0: 73af e43e d5a6 afbc 1095 ed3c 4641 0abb
000000d0: 3e73 8dbc 1d51 2ebe 4816 eb3e 3ded 5b3e
000000e0: 7730 163b 7a6c 86bd 351b 4f3e aee4 2dbd
000000f0: 499b 8a3e d7e6 0fbe 2a69 b8bc 9215 e43c
-0.07902656 -0.03147507 0.28697044 0.39291024 0.3024709 -0.0008883797 0.28992167 0.44519317
0.45353025 0.07108981 0.41392732 -0.047316503 0.33557892 0.38231343 0.0804357 0.31793028
0.0010344014 0.32134274 0.012893854 -0.02313025 0.008642104 -0.0105592385 -0.06684757 0.067208685
0.15806037 -0.053433955 -0.01385634 -0.06632796 -0.034621228 0.31960967 -0.007934738 -0.018098744
-0.03536326 0.00859468 0.23503146 -0.051587634 -0.041740466 -0.09836345 -0.009744887 -0.020802887
-0.010334847 0.20481251 -0.05307439 0.18626013 -0.023266125 0.23761237 -0.03288172 -0.037207358
0.44665107 -0.021441856 0.029001743 -0.0021096035 -0.017266866 -0.1702313 0.45915437 0.21477218
0.002291707 -0.06563659 0.20225222 -0.042454414 0.27071598 -0.14052902 -0.022511084 0.027842317

fc2.weight f4 [32, 64]
00000000: 348b 34bd 5a58 ea3d 7212 12be aecf 5bbb
00000010: b6c1 a73d 6395 8e39 304e 6abd 0ce9 883d
00000020: cb8c 0f3d 66f1 003d abb4 04be 4173 babd
00000030: cdfe ff3b d645 4f3d b62c bcbd 011a d5bc
00000040: ac01 633d 8a9e e4bd 3012 24bb c2ad 50bd
00000050: 31d6 b53d 0fbc 0ebe 3575 32bd e527 ee3a
00000060: d02d 87bd 9ebf 8cbc e106 403d b8ae 6fbd
00000070: a159 babd 4138 3f3d ef12 e1bd a6ee 47bd
00000080: e669 04be 206b e03d 47d5 813d b113 e3bd
00000090: 5a3f bd3c f288 f3bc f561 acbc fbb7 b2bd
000000a0: 55bf 96bd 8067 27bd 74f8 033d 40b8 4bbd
000000b0: b5dd 573d b446 983d c3a2 bc3d 6ddf 9bbd
000000c0: 4588 c9bd 9ce8 a1bc 1cc3 ad3d d3ef 103d
000000d0: 5177 d2bd ddee c43d 07af c33d 818c a63d
000000e0: 8bf6 983b 7c08 ca3d bced f6bd 1e4c 903d
000000f0: 79f4 3abb 5c78 fc3d d1d1 43bb 0e07 edbc
00000100: 471c efbe d713 fcbd cf89 6c3e 37bd 883e
00000110: 3ec6 f93d f9e1 09be 3e69 943e 92dc 693e
00000120: 9d33 493f 5d9e a6be 25be f43d 51ef d4be
00000130: 6927 973e 3eaf 473e 10b3 ce3d bc6e 2a3e
00000140: 2277 02be e4e3 593e 47a3 f4be 84ca b9bd
00000150: d17e 513d b028 953c 06fe f43d d2a5 27be
00000160: e019 8a3e 5c08 a6be 175c efbd fe5a 9c3d
00000170: c8bf b0be 30a6 9c3e 76d9 12bd dac4 4ebd
00000180: d456 0fbe 6379 0dbf 9e2f 6a3e 84f6 78be
00000190: 2fb5 c1be 0b9a babe d013 45bc 7f5c 99be
000001a0: a9b0 473e af22 e93e 78d5 f4be f9ed 3f3e
000001b0: b9b1 a5be 5612 053e f2fe 7b3d 6e0d 58be
000001c0: e9fd 123e 8633 d8be 25a1 02be f359 e8be
000001d0: 6ce1 d9bd d693 26bf 3a59 e93e eb29 c03e
000001e0: ec56 3dbd a5f6 d2be d638 833e e518 94be
000001f0: a8d3 8c3e e144 fd3e 5ecf 6dbd 345f 1ebf
00000200: 744f 30be 2b98 c43e df54 2ebd 4cf4 0fbe
00000210: 357a 923d ec07 1ebc 790d 8bbe cf8f d93d
00000220: 5d68 6f3e 5a80 07bf d6e1 6fbc b836 b1bd
00000230: 4883 4c3d 3941 3cbd 9ef8 d03d 9c27 023d
00000240: d649 bc3d 784d c43d e695 d43d 1521 473e
00000250: cea4 903d afb9 913e b499 2b3f 0dca 01bf
00000260: 81d6 3d3e 22d7 e4bd 421b 84bc ba5f a2bd
00000270: c183 02be c974 623b ad13 ad3e a889 97bd
00000280: f1a3 2fbe 423d 25bd 67ed bcbc cb45 01be
00000290: 1c7f acbd fe4f f9be a1b0 1b3e 3f36 763d
000002a0: 4ab6 c43e 2f3b ee3e b78c 8abe 46cc 0dbe
000002b0: 007d d8bd 1f40 f73d 4f27 9b3d 5d2d 4f3e
000002c0: 09c9 f5bc d6f1 d4be fcb0 49be 8a92 2ebf
000002d0: 03c7 2f3d 0cca 233d 013b c2be 656d 183e
000002e0: e2d4 f6bd 5b5e f3be 97d7 983e 9faa 843d
000002f0: 29c1 373e a3ec 0f3f e21a 763d b628 04bf
00000300: f5b8 903e 9c64 773e 9a95 a23e a4b2 9e3d
00000310: 39a3 6bbd 7b44 353e 3a8c 703e 1873 7bbe
00000320: 5c8a 423e ccf9 0c3e 1407 293e ee21 82bd
00000330: 07c5 973e bbbd 783d 1423 e6bd 8bb4 073d
00000340: 7e1b bc3e ad16 2c3e 6e72 163f 4302 59bc
00000350: 4b0c 65bf 188d 8c3e 4572 9c3e c2c4 cebe
00000360: df5a 1f3e 38c2 563e b7eb d13d b9c8 59bf
00000370: daf1 543d bc94 bebc 8f01 aebc 97cc e1be
00000380: bf7c 6f3c 6d50 df3d ba92 2abe 58ac 2b3e
00000390: 975e abbd 2efa b2be 9fbf 77bd e91b 213e
000003a0: 7e37 be3d df04 3c3e 830b d43d 2d10 943e
000003b0: 079d 0d3b 01b6 9f3c 49c6 64be 38de 8e3d
000003c0: 351f 97be b818 4abe 53ca 4d3e 0664 06bf
000003d0: dfff a13d 5983 6c3f 06cb 8c3e dc48 05bf
000003e0: 2a9b a2be 4c18 ccbe cd5a 5a3e cb3a c23e
000003f0: 45b5 d2be eca9 f0be c0a3 ea3c c797 6e3e
-0.044078067 0.11442633 -0.14264849 -0.0033540535 0.08191244 0.00027195652 -0.05720347 0.06685075
0.03504638 0.031480215 -0.12959544 -0.09104014 0.007812357 0.05060371 -0.091882154 -0.026013376
0.055421516 -0.111630514 -0.0025035255 -0.05094696 0.088787444 -0.13938926 -0.04356881 0.0018169848
-0.06600535 -0.017181214 0.04688156 -0.058516234 -0.090991266 0.046684507 -0.109899394 -0.048811577
-0.12931022 0.109579325 0.063395076 -0.1108774 0.023101497 -0.029728387 -0.021042803 -0.08726498
-0.073607124 -0.04087019 0.032219365 -0.04973626 0.05270167 0.074353606 0.09210732 -0.076109745
-0.098404445 -0.019764237 0.0848448 0.035384964 -0.10276664 0.09615872 0.09554868 0.08132268
0.004668062 0.098648995 -0.12057063 0.07045768 -0.0028527065 0.12327644 -0.00298797 -0.028934028
-0.4670126 -0.12308472 0.23099445 0.2670686 0.12196015 -0.13465108 0.28986543 0.22838047
0.7859438 -0.32542697 0.1195033 -0.41588834 0.29522255 0.19500443 0.10092747 0.16643804
-0.12740758 0.2127834 -0.4778082 -0.0907183 0.051146332 0.018207878 0.119625136 -0.16371849
0.26972866 -0.32428253 -0.116874866 0.07634543 -0.34521317 0.3059554 -0.03585192 -0.0504807
-0.13997966 -0.55263346 0.22869727 -0.24312788 -0.37833545 -0.3644565 -0.012028649 -0.2995338
0.19500984 0.45534274 -0.47819114 0.18743123 -0.32362154 0.12995276 0.06152243 -0.21098873
0.14354672 -0.4222681 -0.12756784 -0.45381126 -0.10638699 -0.6506933 0.45575887 0.3753198
-0.046225473 -0.412038 0.256293 -0.28925243 0.2750523 0.49466613 -0.05805909 -0.6186402
-0.17217809 0.38397345 -0.042561408 -0.14058036 0.071522154 -0.009645443 -0.27158716 0.106231324
0.23379655 -0.52930224 -0.014641246 -0.08653015 0.049929887 -0.04596064 0.1020367 0.031776056
0.091937706 0.095850885 0.10380153 0.19446214 0.07062684 0.28461978 0.6703141 -0.5069893
0.18538858 -0.11173846 -0.016126279 -0.07928415 -0.12745573 0.0034554473 0.33804074 -0.07399303
-0.17152382 -0.040341623 -0.023062421 -0.1262428 -0.08422682 -0.48693842 0.15204097 0.060110327
0.38420326 0.46529528 -0.27060482 -0.13847455 -0.10570717 0.12072777 0.07575857 0.20232148
-0.030003088 -0.41590756 -0.1969642 -0.6819235 0.0429144 0.03998761 -0.3793564 0.1488548
-0.12052323 -0.47532925 0.29851982 0.06477856 0.17944779 0.56220454 0.06008423 -0.5162462
0.2826611 0.24159473 0.31754762 0.07748917 -0.057528708 0.17701904 0.23490992 -0.24555624
0.18998092 0.13767165 0.16506606 -0.06354128 0.29642507 0.060727816 -0.11237159 0.033131164
0.36739725 0.16805525 0.58768356 -0.013245168 -0.8947188 0.27451396 0.3055593 -0.4038449
0.15562008 0.20972526 0.10250037 -0.85071903 0.05198846 -0.023264281 -0.021240978 -0.44101402
0.014617144 0.10904012 -0.16657534 0.16764963 -0.08367651 -0.34956497 -0.06048548 0.15733303
0.09287928 0.18361233 0.10353758 0.2891859 0.0021608488 0.019495966 -0.22341265 0.069759786
-0.29515997 -0.19735992 0.20096712 -0.52496374 0.07910132 0.9238792 0.27498645 -0.520643
-0.31759006 -0.39862287 0.213237 0.3793548 -0.41153923 -0.4700464 0.028642535 0.23300086

fc2.bias f4 [32]
00000000: f9fa 30bd a8ba bd3e d8a8 d83d f3cd c93d
00000010: 9b18 f5bc f62b a5bd 3106 e8bd a7c6 813d
00000020: 58dc 003e 5b41 743e 7332 013d 9066 70bd
00000030: d3c8 593e b6c6 a13d 910b e2bd f86b 19bd
00000040: 3346 8d3e fc73 0b3c 54a0 b1bd a30a 1cbe
00000050: c11a 883d 68bc 5b3e 07d3 b2bd 6ece b0bd
00000060: bac0 11be a550 923e f937 1b3d c424 14be
00000070: 69d9 00be 5894 293d bc2e cfbd 8024 a1bd
-0.043208096 0.3705647 0.105790794 0.09853735 -0.02991896 -0.080650255 -0.11329306 0.06336718
0.12584054 0.23853056 0.031542253 -0.05869156 0.21268015 0.07899229 -0.11037362 -0.037456483
0.2759262 0.00851154 -0.08673158 -0.15238433 0.06645728 0.2145859 -0.087316565 -0.08633123
-0.14233676 0.28577152 0.037895177 -0.1446715 -0.12582935 0.041401237 -0.10116336 -0.0786829

output.weight f4 [4, 32]
00000000: 2f88 023e 2b96 8d3e 82aa 4cbe b571 a13e
00000010: a3eb d83d ef44 203e 9bc8 8abd f87f 79be
00000020: 37ce b83e f732 0f3f a056 6dbb 85cf cbbd
00000030: c209 ac3e eba5 54bf 08b0 0cbf a6f8 10c0
00000040: 506b e53e 7e8e b83d 18ba 09bf dbc6 d1bd
00000050: a83d 68bf 9c42 ed3e ae31 6cbf 6573 23bf
00000060: 3ecf f9be 9ca5 d1bb b7f0 92be e527 783d
00000070: c249 f8be 3457 4b3d d1bd f5be b9d3 0abe
00000080: 27f7 edbb ed83 1c3e 6509 e23e 370c fbbe
00000090: a847 13bf 988c 52bd 09f2 bdbc 0ce6 2dbf
000000a0: d814 8a3e 0569 c0be 0c98 b8bd d564 c7bd
000000b0: baae e9be 0b93 98be a648 8b3e aab3 cdbc
000000c0: 1af4 983e 1a6d f03e 5d61 3cbe 48e1 b93d
000000d0: 0663 b4be b0a3 3f3c 5961 cabe b265 cdbe
000000e0: 2f83 a1bd 1445 953e d36d 983e 6390 a0bd
000000f0: 0da2 81bd e014 903e d984 313e 04bd bbbd
00000100: 44f7 3abc 0ffc 9dbe 730e 09bf 24eb 90be
00000110: 1de3 e13e 30c8 0dbe be98 ef3d 3a4b e5be
00000120: 9068 3ebf b575 fcbe 0051 dd3e 229e 11be
00000130: 351b c23e 546e 193e 32cb 543d f69e 9dbe
00000140: 88fe 7ebe bf52 d9be bff3 183e acde 5abd
00000150: df40 153d 0a53 cfbe b5e6 553d 015f 443e
00000160: 5070 de3d ff42 35bc 23ab bb3d 1ab9 ed3d
00000170: ed50 1c3e e9e7 b93e 6ced 6c3e 7106 c23d
00000180: 6f73 c73d dd16 5dbf 9418 883e 2154 fe3e
00000190: f37f 40be 5641 6dbd 5473 19be bfd4 ef3e
000001a0: 8165 923e 3e76 0cbf 79f5 c8be 33ef c0bd
000001b0: 2b40 01bf b3e1 b23e b1e7 38bd b3a5 c83e
000001c0: c33c 67bf 97d9 ccbf b7d4 ea3d 8378 c3bb
000001d0: c306 8d3e 07e0 21bf 5ceb 2d3e 9982 ad3e
000001e0: 3e2d c53d 3aa5 34bf 9a30 2cbf 35c0 06be
000001f0: e2f4 353e 2b08 00bf 5bcc fdbe 3145 6bbd
0.12747262 0.27653632 -0.19986919 0.31532064 0.10591819 0.15651296 -0.06776544 -0.24365222
0.3609483 0.5593714 -0.0036214963 -0.099516906 0.33601195 -0.8306567 -0.549561 -2.2651763
0.44808435 0.09011553 -0.5379958 -0.10243007 -0.9071908 0.4633988 -0.92263305 -0.63847953
-0.48790926 -0.006397916 -0.28699276 0.06058492 -0.48493773 0.04964371 -0.4799638 -0.13557328
-0.007262129 0.152847 0.44147792 -0.49032757 -0.57531214 -0.051403612 -0.0231867 -0.6792915
0.26969028 -0.37580124 -0.09013376 -0.09736029 -0.45641118 -0.29799685 0.27203864 -0.025110085
0.29873735 0.46958238 -0.18396516 0.09076172 -0.352318 0.011696741 -0.39527395 -0.4011665
-0.078863494 0.29154265 0.2977129 -0.078400396 -0.06329737 0.28140926 0.17335834 -0.09166911
-0.011411492 -0.30856368 -0.5353767 -0.28304398 0.44118586 -0.13845897 0.11699055 -0.44783956
-0.743783 -0.49308553 0.4322586 -0.14220479 0.37911382 0.14983493 0.051951595 -0.3078534
-0.24901783 -0.42445943 0.14936732 -0.053435013 0.03643882 -0.4049304 0.052221972 0.19176866
0.10861266 -0.011063336 0.09163501 0.11607571 0.15265246 0.36309746 0.23137444 0.09473885
0.09738814 -0.8636301 0.26581252 0.4967356 -0.18798809 -0.057923637 -0.149854 0.46842
0.28593066 -0.54867923 -0.3924978 -0.09420624 -0.5048854 0.3493782 -0.045142833 0.39188918
-0.9032709 -1.6003903 0.114663534 -0.005965294 0.2754422 -0.63232464 0.16984314 0.338887
0.0962777 -0.70564616 -0.6726166 -0.13159259 0.17769197 -0.50012463 -0.49569973 -0.057439033

output.bias f4 [4]
00000000: c35a 703e d2f9 3abe e83e d3bd 2221 7ebe
0.23472123 -0.18259361 -0.10314733 -0.24817327
